mobile/RoomnetClassifier/app/src/main/assets/roomnet.tflite (tflite, 724976 bytes, 53 tensors)

batch_normalization/FusedBatchNorm_add_param f4 [8]
0	0x3cacd0e0	0.021095693
1	0xbe555ab0	-0.20835376
2	0xbdcbbc22	-0.09947993
3	0xbe043b51	-0.12913252
4	0xbe28df54	-0.16491443
5	0xbe145896	-0.14486918
6	0xbd910222	-0.07080485
7	0xbdd9b15b	-0.10629531

batch_normalization/FusedBatchNorm_mul_0_param f4 [8]
0	0x3f5ec8a0	0.8702488
1	0x40a5094e	5.157386
2	0x40ddfc57	6.937053
3	0x3fc1cc23	1.5140423
4	0x4028a27f	2.634918
5	0x400866ad	2.1312668
6	0x4076507e	3.8486629
7	0x40b6fdd2	5.718484

batch_normalization_1/FusedBatchNorm_add_param f4 [32]
0	0x3a7f4da8	0.000973905
1	0xbd102fac	-0.035201713
2	0xbd4032e9	-0.04692355
3	0xbd4b9132	-0.049699016
4	0xbe0f0a1a	-0.13968697
5	0xbcb343b0	-0.021882862
6	0xbd14fac1	-0.03637195
7	0xbc875cd8	-0.016523764
8	0xbda66c04	-0.08126071
9	0xbde674f3	-0.11252775
10	0xbc7625ae	-0.015023632
11	0xbd617760	-0.055045485
12	0x3ae4cd0d	0.001745613
13	0x3aced4ae	0.0015779936
14	0xba9ece71	-0.0012115968
15	0xbd03b7ff	-0.032157894
16	0xbce36084	-0.027755983
17	0x3ad7b6a7	0.0016457633
18	0xbd0d2d18	-0.034466833
19	0xbd836e70	-0.06417549
20	0xbd1b64f5	-0.037938077
21	0xbd871108	-0.06595045
22	0x3a9c5d96	0.0011929746
23	0x3a8cb0c0	0.0010733828
24	0xbab017f0	-0.0013434868
25	0xbcf79e28	-0.030226782
26	0xbc522f6d	-0.01282869
27	0xbcbdb7ef	-0.023158995
28	0xbcb0fdba	-0.021605361
29	0xbade2529	-0.001694833
30	0xbc1befd8	-0.009517632
31	0x3a429842	0.0007423201

batch_normalization_1/FusedBatchNorm_mul_0_param f4 [32]
0	0x29bb92da	8.329943e-14
1	0x3f9e22c4	1.235436
2	0x3fb6e0a4	1.4287305
3	0x3fea20b1	1.8291227
4	0x403daedc	2.9637976
5	0x3fc3bf04	1.5292668
6	0x3fbce662	1.4757807
7	0x3f7cb68a	0.9871603
8	0x4056958e	3.352878
9	0x3fe60cb3	1.7972625
10	0x3f90b9ef	1.1306742
11	0x4015945b	2.33718
12	0xb7543ff3	-1.2651074e-05
13	0xb3a470a8	-7.657337e-08
14	0xa1936231	-9.987099e-19
15	0x3fa59b24	1.293797
16	0x3fc83191	1.5640126
17	0xb6b4b1a7	-5.3850995e-06
18	0x3faa6350	1.3311558
19	0x3ffa5af2	1.9559004
20	0x3fa36322	1.2764628
21	0x3f95e2ac	1.17098
22	0x304dc933	7.4864487e-10
23	0xaea14ffc	-7.3356404e-11
24	0x37c3f422	2.3359495e-05
25	0x3fe47a58	1.7849836
26	0x3f9116c0	1.1335068
27	0x3fa2dbcc	1.2723327
28	0x3f7d0ab9	0.98844486
29	0xb7d24495	-2.5065887e-05
30	0x3fd6a5e2	1.6769373
31	0xb64080bf	-2.868517e-06

batch_normalization_10/FusedBatchNorm_add_param f4 [16]
0	0xbc8da4e1	-0.017290534
1	0xbc6b8bdc	-0.014376607
2	0xbd297d5a	-0.04137931
3	0xbd24aadd	-0.04020201
4	0xbd4711f5	-0.04860111
5	0xbb4e5f68	-0.0031489972
6	0xbc6a7470	-0.014309987
7	0xbb6d97f0	-0.0036253892
8	0xbd04d40a	-0.03242878
9	0xbb2f59f0	-0.0026756488
10	0xbcae7204	-0.021294601
11	0xbd3a387d	-0.045464028
12	0xbca7b3b4	-0.020471431
13	0xbd870dfa	-0.06594463
14	0xbd02fc63	-0.031978976
15	0xbcf042fa	-0.029328812

batch_normalization_10/FusedBatchNorm_mul_0_param f4 [16]
0	0x40be0075	5.937556
1	0x40d539ee	6.6633215
2	0x40c0d1e9	6.025624
3	0x411c9694	9.786762
4	0x40eb9662	7.3621073
5	0x40e4d0c5	7.1504846
6	0x40fd2076	7.9102125
7	0x40d344ce	6.602149
8	0x40c7f32b	6.2484336
9	0x40baa738	5.8329124
10	0x40fe4beb	7.9467673
11	0x40a5ae99	5.177563
12	0x410cd9b5	8.803151
13	0x40cd6572	6.4186335
14	0x40e66972	7.2003717
15	0x410777ad	8.466718

batch_normalization_11/FusedBatchNorm_add_param f4 [16]
0	0xbdb97703	-0.09055903
1	0xbd98bac0	-0.07457495
2	0xbceb1788	-0.028697744
3	0xbd74524b	-0.059648793
4	0xbd37772f	-0.044791397
5	0xbd3ea5a1	-0.046544675
6	0xbd8180ae	-0.06323372
7	0xbcf8b96a	-0.03036185
8	0xbd70401a	-0.058654882
9	0xbcb132ac	-0.021630608
10	0xbce2160a	-0.0275984
11	0xbdb05457	-0.086098365
12	0xbd23e9db	-0.040017944
13	0xbd90d142	-0.07071163
14	0xbd47c03c	-0.048767313
15	0xbd6ee3a6	-0.05832257

batch_normalization_11/FusedBatchNorm_mul_0_param f4 [16]
0	0x40db0d4e	6.845374
1	0x40f1d900	7.5577393
2	0x40d84070	6.757866
3	0x410234fb	8.137935
4	0x40e02d55	7.0055337
5	0x40c5b140	6.177887
6	0x4108d5b6	8.5521755
7	0x40cb368f	6.35041
8	0x40e5f848	7.186558
9	0x40d03774	6.506769
10	0x40dd32d0	6.9124527
11	0x40dd4bc5	6.915499
12	0x40f5b6dd	7.678572
13	0x40e0a733	7.02041
14	0x40eeab8a	7.45844
15	0x40fb1b74	7.847101

batch_normalization_12/FusedBatchNorm_add_param f4 [16]
0	0xbe131ae6	-0.1436573
1	0xbdb4ab64	-0.08821753
2	0xbc2db66c	-0.010602575
3	0x3adb6c20	0.0016740598
4	0x3d1bd36e	0.038043432
5	0xbd4adb59	-0.049525592
6	0xbc1feaa8	-0.009760536
7	0xbdc15588	-0.09440142
8	0xbace2360	-0.0015727095
9	0xbdb3d704	-0.08781245
10	0x3c80543b	0.015665164
11	0xbca79c26	-0.0204602
12	0x3d5f8a79	0.054575417
13	0x3d880460	0.066414595
14	0x3c9b5338	0.01896058
15	0x3d815c16	0.06316392

batch_normalization_12/FusedBatchNorm_mul_0_param f4 [16]
0	0x4000c4a5	2.0120022
1	0x402c6a35	2.6939824
2	0x4092048c	4.563055
3	0x401ec8e7	2.481012
4	0x40360a72	2.8443875
5	0x4043d3aa	3.059794
6	0x40410c53	3.0163772
7	0x4095a488	4.6763344
8	0x40174094	2.3633165
9	0x40cbe391	6.371529
10	0x403290c4	2.7900858
11	0x4029411a	2.6445985
12	0x408cb832	4.397485
13	0x405d2091	3.4551127
14	0x402ab348	2.6671925
15	0x402a6a60	2.6627426

batch_normalization_13/batchnorm/mul f4 [32]
0	0x40855bd6	4.1674604
1	0x404b2ad5	3.1744893
2	0x403e3723	2.9721153
3	0x4053ba64	3.3082514
4	0x4089d917	4.30775
5	0x4022e2ff	2.5451047
6	0x40626ebf	3.5380094
7	0x406f4698	3.7386837
8	0x404711a8	3.1104527
9	0x40514084	3.2695627
10	0x40692116	3.6426444
11	0x40430c8d	3.047641
12	0x405008e0	3.2505417
13	0x407dbdc9	3.9647086
14	0x40850bfd	4.1577134
15	0x40615cc8	3.521288
16	0x403e1b8a	2.9704309
17	0x4094a6f8	4.645382
18	0x407977da	3.8979402
19	0x407a5ba5	3.9118435
20	0x407d94c8	3.962206
21	0x40755d46	3.833818
22	0x4051d937	3.2788827
23	0x4051fbfd	3.2810051
24	0x406ab6ea	3.6674142
25	0x408b5542	4.3541574
26	0x40721388	3.782442
27	0x40661ecc	3.5956297
28	0x4070e479	3.7639449
29	0x4056ff4f	3.3593328
30	0x408a83b1	4.3285756
31	0x403e5502	2.9739385

batch_normalization_13/batchnorm/sub f4 [32]
0	0xbd945363	-0.07242467
1	0xbd8a5a36	-0.067554876
2	0xbd98d55b	-0.07462569
3	0xbd335803	-0.043785106
4	0xbd4fa4c9	-0.05069426
5	0xbd2d1e08	-0.04226497
6	0xbcf03478	-0.029321894
7	0xbcb2577d	-0.021770233
8	0xbdba8167	-0.09106713
9	0xbd8707f2	-0.06593312
10	0xbba79f18	-0.005115401
11	0xbc858df0	-0.016303033
12	0xbc4fb3c6	-0.012677139
13	0xbd314406	-0.043277763
14	0xbd7c84a4	-0.061649933
15	0xbd926003	-0.07147219
16	0xbcd7233e	-0.026261922
17	0xbd2980c2	-0.04138256
18	0xbd106826	-0.035255574
19	0xbd2fd6df	-0.042929526
20	0xbd691d98	-0.05691299
21	0xbd089f58	-0.033355087
22	0xbd97eb4a	-0.07417925
23	0xbd88b45c	-0.06675026
24	0x3b22fa48	0.0024868418
25	0xbd4906cb	-0.049078744
26	0xbd497b02	-0.049189575
27	0xbc492438	-0.012276702
28	0xbd5be7e0	-0.05368793
29	0xbcd9e870	-0.026600093
30	0xbd656ac6	-0.05601003
31	0xbcb99670	-0.022654742

batch_normalization_14/batchnorm/mul f4 [16]
0	0x40e25fb3	7.074182
1	0x40bd071f	5.9071193
2	0x40df66da	6.981305
3	0x40f3b6a4	7.616045
4	0x40df104b	6.970739
5	0x40e28705	7.078982
6	0x40ab3cf5	5.351191
7	0x40dcab25	6.8958917
8	0x40cbea39	6.3723416
9	0x40bb9753	5.862222
10	0x40c3c424	6.117693
11	0x40d4866e	6.64141
12	0x41024700	8.142334
13	0x40fe1219	7.939709
14	0x40efe0bf	7.496185
15	0x40e4487f	7.1338496

batch_normalization_14/batchnorm/sub f4 [16]
0	0xbe6c06f2	-0.23049524
1	0xbd1490e0	-0.036270976
2	0xbe2536a8	-0.16134131
3	0xbbd5cd90	-0.006524749
4	0x3c5e0b70	0.013552532
5	0xbe253881	-0.16134836
6	0xbe591cb4	-0.21202356
7	0xbd37f8b6	-0.044914924
8	0xbde90ee6	-0.11379795
9	0xbd3f6f97	-0.04673728
10	0xbe170f7d	-0.14752002
11	0xbd9a01cc	-0.07519874
12	0xbd10ebc2	-0.035381086
13	0xbdd31a10	-0.103077054
14	0xbe41bd0a	-0.18919769
15	0xbe1a69e4	-0.15079457

batch_normalization_15/batchnorm/mul f4 [8]
0	0x413b8d77	11.722037
1	0x411a83f1	9.657212
2	0x41391a0f	11.568862
3	0x4117ed7c	9.49548
4	0x41226ef5	10.152089
5	0x41415e0a	12.085459
6	0x40f3ac3d	7.614775
7	0x41357578	11.341179

batch_normalization_15/batchnorm/sub f4 [8]
0	0xbfa0689f	-1.2531928
1	0xbf82d9d1	-1.0222722
2	0xbf86af9b	-1.052234
3	0xbf83498a	-1.0256817
4	0xbf4e9429	-0.80694824
5	0xbf5bdcfc	-0.8588407
6	0xbf38be15	-0.7216504
7	0xbf66fff9	-0.90234333

batch_normalization_2/FusedBatchNorm_add_param f4 [32]
0	0x3920f711	0.00015350828
1	0xb9093493	-0.00013084924
2	0xb910e33a	-0.00013817559
3	0xb908a165	-0.00013030095
4	0xb9371259	-0.00017459075
5	0x3973ab33	0.00023238063
6	0xb50bda6a	-5.209937e-07
7	0xb9926b77	-0.00027927358
8	0x39349857	0.00017222889
9	0xb9924912	-0.00027901732
10	0xbdf3a562	-0.11896779
11	0x3968a040	0.00022184942
12	0xb9d3298f	-0.0004027602
13	0xbdfcdf1b	-0.123472415
14	0x39bdd90b	0.000362106
15	0x39353dbe	0.00017284506
16	0xb9a2052a	-0.00030902895
17	0x39e5663c	0.00043754454
18	0xb9ba3cc2	-0.00035521953
19	0xb99fa784	-0.00030451652
20	0xb98d833b	-0.0002699139
21	0xb9bbffcf	-0.00035858012
22	0xb931eba8	-0.00016967824
23	0x37c774b6	2.3776996e-05
24	0xbde4d559	-0.11173505
25	0xb9b7061b	-0.0003490903
26	0xb94b2e8d	-0.0001937693
27	0xb9c12f36	-0.00036847004
28	0xb96d6ecc	-0.00022643356
29	0xb958cf91	-0.0002067669
30	0xb9564f80	-0.00020438246
31	0xb9705282	-0.0002291892

batch_normalization_2/FusedBatchNorm_mul_0_param f4 [32]
0	0xa29c8155	-4.242082e-18
1	0x17541357	6.8525305e-25
2	0x34e6e60e	4.3008225e-07
3	0x30851ef7	9.685824e-10
4	0xabdbc02a	-1.5614222e-12
5	0x23f439a1	2.647894e-17
6	0x1532579f	3.6015935e-26
7	0xa99934e0	-6.803737e-14
8	0xa449702b	-4.3679937e-17
9	0x9708d4c4	-4.421252e-25
10	0x403d4bda	2.9577546
11	0xa4965335	-6.519309e-17
12	0xa841f7b1	-1.0767362e-14
13	0x401aee64	2.4208002
14	0x2cde1a05	6.3125082e-12
15	0xb71db5f3	-9.400293e-06
16	0x9986f19e	-1.3952864e-23
17	0x32e63d80	2.6803491e-08
18	0x18738307	3.1473166e-24
19	0x1b25c414	1.3711836e-22
20	0x300ce474	5.1256355e-10
21	0x29356127	4.027434e-14
22	0x258ae4c6	2.4094207e-16
23	0x2bf70954	1.7552995e-12
24	0x40505e72	3.2557645
25	0xafca617f	-3.681286e-10
26	0xa845a81a	-1.0972148e-14
27	0xac86e121	-3.8335034e-12
28	0x366897eb	3.4659122e-06
29	0x21746dac	8.2815565e-19
30	0x21b70f8c	1.2404678e-18
31	0x9e92764b	-1.5507276e-20

batch_normalization_3/FusedBatchNorm_add_param f4 [32]
0	0x3ae15721	0.0017192104
1	0x38c88266	9.561032e-05
2	0xba6e2a6f	-0.00090853026
3	0xbcd99ac4	-0.026563056
4	0xbd9de098	-0.077088535
5	0x3aa2ffc1	0.001243584
6	0x38f2df4c	0.000115810515
7	0xba985093	-0.0011620693
8	0xbd958913	-0.073015355
9	0xbd37b96b	-0.044854563
10	0xb9c59aed	-0.00037690197
11	0xbd4d0457	-0.050052967
12	0x3aee35ed	0.001817403
13	0x3aee19ea	0.0018165682
14	0xbac929d2	-0.0015347546
15	0x39ca77ec	0.0003861779
16	0x3ac3212e	0.0014887208
17	0x3b080101	0.0020752551
18	0xbce3af84	-0.027793653
19	0x3add5841	0.0016887264
20	0xb8bc8ede	-8.99115e-05
21	0xbba5c823	-0.0050592585
22	0x3abee92d	0.0014565341
23	0x3b033b23	0.0020024262
24	0xbac5e752	-0.0015098846
25	0xbd38f9aa	-0.045159973
26	0x3a1f5545	0.0006078075
27	0x3a113639	0.0005539391
28	0xb8e0bf89	-0.000107168285
29	0xbae619ff	-0.0017555355
30	0xbb18adb6	-0.00232969
31	0x3afe61e4	0.0019407836

batch_normalization_3/FusedBatchNorm_mul_0_param f4 [32]
0	0x8cb87c9d	-2.8424688e-31
1	0x3a96d833	0.0011508524
2	0x3ccb251f	0.024797974
3	0x3f987416	1.1910427
4	0x4056c087	3.355501
5	0xb818f21a	-3.64651e-05
6	0x3b0fcdca	0.0021942728
7	0xb8e58429	-0.00010944188
8	0x403cec0b	2.951907
9	0x4017fbb9	2.374739
10	0xb906cf71	-0.00012856514
11	0x401f5e07	2.490114
12	0x8becfa51	-9.128053e-32
13	0x8d1f50bb	-4.9092834e-31
14	0x8d2c08a4	-5.3011993e-31
15	0x3f88ee8a	1.0697796
16	0xbaddc2e1	-0.001691904
17	0x0dbbb8fb	1.1569297e-30
18	0x3faea7f6	1.3645008
19	0xb8a5e74c	-7.9108955e-05
20	0xb813cf94	-3.5240853e-05
21	0x3f8ef5d6	1.1168773
22	0x0cc6e2a5	3.0643137e-31
23	0x8d69e380	-7.207251e-31
24	0x0ccf0c37	3.1900751e-31
25	0x40026278	2.03726
26	0x38c736b1	9.4992465e-05
27	0x3961499f	0.00021485098
28	0x3d26e7b3	0.04074831
29	0x8c51a4ca	-1.6150364e-31
30	0x3f693043	0.91089267
31	0x0babe317	6.620849e-32

batch_normalization_4/FusedBatchNorm_add_param f4 [32]
0	0xbb4a5e95	-0.003087913
1	0x3cb21388	0.021737829
2	0x3d2cebc8	0.042217046
3	0xbd20668a	-0.03916029
4	0xbd2ba704	-0.041907325
5	0xbc6d0a5c	-0.014467802
6	0x3d8eb118	0.06967372
7	0x3d373d81	0.04473639
8	0xbdb306c0	-0.08741522
9	0x3d32fdba	0.043699004
10	0x3d2e57b5	0.042564113
11	0xbbc05755	-0.005869786
12	0xbb38763d	-0.0028146647
13	0x3b3e26b0	0.0029014759
14	0xbb3abcb8	-0.0028493833
15	0xbd9ba6e1	-0.07600189
16	0xbd44f012	-0.04808051
17	0xbb55f4bf	-0.00326471
18	0xbcdbfd92	-0.02685431
19	0xba222280	-0.00061849505
20	0x3db05362	0.08609654
21	0x3d0e52fa	0.0347471
22	0xbb1a12a5	-0.0023509648
23	0x3b5410c4	0.0032358626
24	0x3b1f9f95	0.0024356593
25	0xbd9388c6	-0.07203822
26	0xbd89b5de	-0.067241415
27	0x3ca5414c	0.020172738
28	0x3bc37d12	0.0059658373
29	0x3b4b6d7a	0.0031040595
30	0x3c79b62c	0.015241187
31	0x3b43236b	0.002977575

batch_normalization_4/FusedBatchNorm_mul_0_param f4 [32]
0	0xbd7a9495	-0.061176855
1	0x400df19c	2.2178717
2	0x3fb7c9cb	1.4358457
3	0x402c9b17	2.696966
4	0x3faf8eff	1.3715514
5	0x4014e07d	2.3262017
6	0x40020daf	2.0320852
7	0x3fac8b7e	1.348007
8	0x3fcd7a35	1.605292
9	0x4001dca8	2.0290928
10	0x3fe7e6aa	1.8117268
11	0x4001615f	2.021568
12	0xbd8a8d49	-0.06765229
13	0x3d89599e	0.06706546
14	0x3d6fe86d	0.058571268
15	0x40199796	2.399877
16	0x400a441d	2.1604073
17	0xbdb269ad	-0.08711562
18	0x40219c54	2.5251665
19	0x3fd09b0c	1.6297317
20	0x401af4da	2.4211946
21	0x4030c2ea	2.7618966
22	0xbd6443db	-0.055728775
23	0x3da57b45	0.080801524
24	0xbd8029db	-0.06257983
25	0x4020f95b	2.5152194
26	0x40065edc	2.0995398
27	0x4006fcd7	2.1091821
28	0x40550cda	3.3289094
29	0xbd8792e0	-0.06619811
30	0x3fe593f1	1.7935773
31	0x3d9ad067	0.07559281

batch_normalization_5/FusedBatchNorm_add_param f4 [64]
0	0x371e6e3d	9.443201e-06
1	0x3a81bd08	0.0009898255
2	0xbc09f894	-0.008421082
3	0xba8622f8	-0.001023381
4	0x3a74e4e1	0.0009341967
5	0xb382bdee	-6.088145e-08
6	0x333783e8	4.2727976e-08
7	0x3a82ff8c	0.0009994372
8	0xba8e6339	-0.0010863311
9	0xbbdb0090	-0.0066834167
10	0x335d5a9e	5.1537988e-08
11	0xbc8ad0c0	-0.016945243
12	0x3a9855c3	0.0011622239
13	0x340b9827	1.3000736e-07
14	0xbd142d62	-0.036176093
15	0xbe172aa3	-0.14762358
16	0xb4b65062	-3.3958628e-07
17	0xbc3063c4	-0.0107659735
18	0xbd2979fe	-0.041376106
19	0xbca8f275	-0.020623425
20	0x34c68605	3.6977886e-07
21	0x3a9924c6	0.0011683933
22	0x3a9c64ff	0.0011931955
23	0xbc950ba3	-0.018194025
24	0xbc8c99f0	-0.017163247
25	0xb50e910a	-5.311018e-07
26	0x3a9ff868	0.0012204768
27	0xba59574f	-0.0008290903
28	0xb3273b43	-3.8936616e-08
29	0xb46ca4de	-2.2039191e-07
30	0xba83dc71	-0.0010060203
31	0xb69d2e00	-4.6843197e-06
32	0x36b9dbd9	5.5390233e-06
33	0xbca48fae	-0.020088043
34	0xb9be16cf	-0.00036256618
35	0x3ab176c2	0.0013539421
36	0x3ab235f0	0.0013596397
37	0xbd1880f6	-0.03723236
38	0xbd1f6b7c	-0.038920864
39	0xba98271c	-0.0011608335
40	0xbc0105c4	-0.00787491
41	0x3a909c02	0.0011032822
42	0xbae56721	-0.0017502048
43	0xba9adcbc	-0.0011815052
44	0xbc819f47	-0.01582302
45	0xba474c70	-0.00076026376
46	0xba9788e9	-0.0011561188
47	0xbcb371ac	-0.021904789
48	0x35352890	6.748678e-07
49	0x3a988602	0.0011636617
50	0xb6f0c22a	-7.175161e-06
51	0xbc9a8875	-0.018863896
52	0x3a7633e3	0.0009391887
53	0xb414195f	-1.3792804e-07
54	0xbaad211c	-0.001320872
55	0xb9a501ab	-0.00031472495
56	0xbaa0245d	-0.0012217868
57	0xbce9f7f1	-0.02856061
58	0x34110fbd	1.3509903e-07
59	0x3a5841bc	0.0008249541
60	0xbbcbce28	-0.006219644
61	0x3a939079	0.0011258266
62	0x30a808c2	1.2226098e-09
63	0xbc1f9aae	-0.009741468

batch_normalization_5/FusedBatchNorm_mul_0_param f4 [64]
0	0x2b02a0ee	4.640861e-13
1	0x2eecab13	1.07624264e-10
2	0x402f9589	2.743502
3	0x31a46933	4.784988e-09
4	0xb20b82b2	-8.1205815e-09
5	0x355e48af	8.2807213e-07
6	0x22cd5efd	5.5665934e-18
7	0x22fb81b0	6.8171e-18
8	0xb4065793	-1.2511582e-07
9	0x3feca28d	1.8487107
10	0x23db3721	2.3767376e-17
11	0x3f9b06e8	1.2111483
12	0xb88228a0	-6.20645e-05
13	0x1e94c5ef	1.5751973e-20
14	0x4015a4bb	2.3381793
15	0x400febbc	2.248763
16	0x37379a2a	1.0943544e-05
17	0x402176c9	2.522875
18	0x3ff62f48	1.9233179
19	0x3fb485e9	1.4103366
20	0x228311dd	3.5526535e-18
21	0xbab73133	-0.0013976455
22	0xaeb963a6	-8.430527e-11
23	0x3fbb05ff	1.4611205
24	0x3fa34937	1.2756718
25	0xb9393dbb	-0.00017665971
26	0x26b36d69	1.2450276e-15
27	0x3868471f	5.5379347e-05
28	0x0b1a2cae	2.9692934e-32
29	0x1f57ada8	4.5671666e-20
30	0xb1c26855	-5.6580043e-09
31	0x34ca91ff	3.7731658e-07
32	0xb9143d6c	-0.00014137261
33	0x3ff3c74d	1.9045197
34	0xb760d493	-1.3400934e-05
35	0xba847519	-0.0010105699
36	0x310b4f67	2.0272297e-09
37	0x400230be	2.034225
38	0x3fc9106a	1.5708134
39	0x33cf2da6	9.647492e-08
40	0x3fe4df80	1.7880707
41	0x32b1e5d1	2.071002e-08
42	0x3408cddf	1.2740882e-07
43	0xb19b61d5	-4.522216e-09
44	0x3ffc3821	1.9704629
45	0x33bf9531	8.921268e-08
46	0x39a18ea4	0.00030814589
47	0x3ff83b48	1.9393091
48	0x327e0385	1.4785546e-08
49	0xb9bba1cf	-0.00035787976
50	0x29f8de18	1.10519395e-13
51	0x3fe9bde4	1.8261075
52	0x2ca0035a	4.5478456e-12
53	0x369b61a7	4.630728e-06
54	0x3b016a6a	0.0019747266
55	0x3a0883f3	0.000520765
56	0x38a04c17	7.6435674e-05
57	0x3fed59bb	1.8543009
58	0x1814dd21	1.9240193e-24
59	0xb337b2c8	-4.277061e-08
60	0x3ff98a01	1.949524
61	0x2046fb7f	1.6854465e-19
62	0xb4185b4c	-1.4189317e-07
63	0x40219f61	2.5253527

batch_normalization_6/FusedBatchNorm_add_param f4 [64]
0	0x377adf2e	1.4953124e-05
1	0x3820163c	3.816768e-05
2	0xbc23598e	-0.009970082
3	0x38856f07	6.362615e-05
4	0x377694a4	1.4697351e-05
5	0xb655d7e2	-3.1865134e-06
6	0xb6b0525f	-5.254798e-06
7	0x37fac57e	2.9894287e-05
8	0xb847f25b	-4.767101e-05
9	0xbbc0b95b	-0.005881471
10	0x330ee068	3.3266048e-08
11	0x3acaa9a7	0.0015461937
12	0x37c86867	2.3890474e-05
13	0xb4a2b127	-3.0303747e-07
14	0xba081878	-0.00051916344
15	0xbd8c8e96	-0.068631336
16	0xb575862c	-9.146486e-07
17	0xba015c84	-0.00049347454
18	0xbc222874	-0.00989734
19	0xbc64058e	-0.01391734
20	0xb4870f5e	-2.515689e-07
21	0x3792b048	1.7486644e-05
22	0xb867593a	-5.515779e-05
23	0xb928eea6	-0.00016110632
24	0x3ce408db	0.027836254
25	0xb6ef806b	-7.137705e-06
26	0xb81a3ff5	-3.6776026e-05
27	0xb822b860	-3.8795522e-05
28	0xb62e99c4	-2.6017524e-06
29	0xb6b2cb2f	-5.328467e-06
30	0x300f9a72	5.2242577e-10
31	0x369712b6	4.502329e-06
32	0xb5479cde	-7.436155e-07
33	0x3c2b9a0f	0.010473742
34	0xb6a0bcbe	-4.790344e-06
35	0xb406ac98	-1.2542512e-07
36	0x37c5b643	2.3569102e-05
37	0x38ba8e00	8.895621e-05
38	0x3c61f8d1	0.013792233
39	0xb7d7731d	-2.5683601e-05
40	0x3a3909f5	0.00070586737
41	0x36e52d3e	6.8299987e-06
42	0x3885c1a1	6.3780004e-05
43	0x355647b5	7.982556e-07
44	0xba015ce8	-0.00049348036
45	0x34c54638	3.67452e-07
46	0xb7b6ad18	-2.1776694e-05
47	0x39477743	0.00019022547
48	0x368f3027	4.2673378e-06
49	0x382a224f	4.056311e-05
50	0x35cac6be	1.5108014e-06
51	0x3a8e3201	0.0010848643
52	0x3788a304	1.6288373e-05
53	0x365bd69c	3.2758462e-06
54	0x3863fbeb	5.4355634e-05
55	0xb794857f	-1.7705139e-05
56	0x369a63bc	4.6011683e-06
57	0x3d1acdb3	0.037793826
58	0x308b8058	1.0150059e-09
59	0x37ad561a	2.0663301e-05
60	0x3abaff5b	0.0014266776
61	0x377d5680	1.5100115e-05
62	0xb6189533	-2.273661e-06
63	0xbadd1d77	-0.0016869743

batch_normalization_6/FusedBatchNorm_mul_0_param f4 [64]
0	0x8d214c6d	-4.970395e-31
1	0x0caa77ec	2.6264823e-31
2	0x3faf540c	1.3697524
3	0x8d9c224a	-9.622497e-31
4	0x0d96496e	9.262141e-31
5	0x0d0c6600	4.326361e-31
6	0x0d3e4cdc	5.8640786e-31
7	0x8ce7ac83	-3.5695012e-31
8	0x8d05d844	-4.124411e-31
9	0x3f5c8b8b	0.86150426
10	0x8a3f283e	-9.203884e-33
11	0x3e6bf9aa	0.23044458
12	0x8c6bef80	-1.8175813e-31
13	0x0d16de86	4.649017e-31
14	0x3e961a7c	0.2931708
15	0x40228c77	2.5398233
16	0x8c7a4aa8	-1.9281765e-31
17	0x3d086997	0.033303823
18	0x3fa66327	1.2999009
19	0x3f9af1e3	1.2105068
20	0x0d4d40f2	6.3248677e-31
21	0x8d343cd7	-5.5540016e-31
22	0x8cf964e6	-3.842525e-31
23	0xbd7c4444	-0.06158854
24	0xc021fba7	-2.5309846
25	0x0d84276d	8.1446195e-31
26	0x0d38fa9c	5.7001038e-31
27	0x8b14a21a	-2.8625715e-32
28	0x8cf3e434	-3.7577423e-31
29	0x0d6576c3	7.0709027e-31
30	0x8d6b08c0	-7.24255e-31
31	0x0d68a01b	7.168324e-31
32	0x0c4da8f4	1.5843468e-31
33	0xbfc665be	-1.5499799
34	0x0d81451c	7.966876e-31
35	0x0d505df0	6.420802e-31
36	0x0d113453	4.474456e-31
37	0xbca559d5	-0.020184437
38	0xc01d4c61	-2.4577868
39	0x0cf9dd76	3.8497811e-31
40	0xbe0759ff	-0.13217925
41	0x0a2a970d	8.213612e-33
42	0x8cbe7c4b	-2.9348941e-31
43	0x8ca80c50	-2.5891909e-31
44	0x3cb16460	0.021654308
45	0x8c2a333e	-1.3111744e-31
46	0x0d7dd221	7.8214578e-31
47	0xba9fcd1f	-0.0012191868
48	0x0cc841f4	3.0854573e-31
49	0x8d9465d2	-9.145717e-31
50	0x0c0991e3	1.0597997e-31
51	0xbc9ade55	-0.018904844
52	0x8d4d2bb3	-6.3223103e-31
53	0x8c114c4a	-1.1193351e-31
54	0x0b91e86d	5.6201684e-32
55	0x0da44e3e	1.0126116e-30
56	0x8d9396cb	-9.095877e-31
57	0xbfb266cd	-1.3937622
58	0x0cca99cc	3.121559e-31
59	0x0d525472	6.4812893e-31
60	0xb8bc5d11	-8.9818735e-05
61	0x0b2f4cab	3.3761453e-32
62	0x0d42dc6f	6.0046203e-31
63	0x3d49d347	0.049273755

batch_normalization_7/FusedBatchNorm_add_param f4 [64]
0	0x39a743cc	0.00031903235
1	0x39974669	0.00028853424
2	0xbc9219aa	-0.017834503
3	0x3bb8bbd3	0.0056376248
4	0xb712b640	-8.7447115e-06
5	0x3a1dc2fd	0.000601813
6	0xb9b25658	-0.00034015137
7	0xb9a74b5a	-0.00031908863
8	0x3998d9f9	0.00029154102
9	0xbc89f2ef	-0.016839473
10	0x3405035a	1.238781e-07
11	0xbd853a11	-0.06505216
12	0x39adba7d	0.00033136076
13	0x39ab024e	0.0003261738
14	0x3d440508	0.04785636
15	0x3d03ea0c	0.032205626
16	0x39e0275a	0.0004275393
17	0xbd0d443f	-0.034488913
18	0x3d02d096	0.031937204
19	0xbb95c07d	-0.0045700655
20	0xb8dd8eba	-0.00010564686
21	0xb9b925b2	-0.00035314035
22	0xba3191a3	-0.0006773716
23	0x3bbf2c60	0.0058341473
24	0x3bc17945	0.005904349
25	0xb9adfe7b	-0.00033186734
26	0xbb3447da	-0.0027508647
27	0xb96c00cd	-0.00022507012
28	0x39764310	0.00023485371
29	0x39d4648a	0.00040510698
30	0xb37480cd	-5.692782e-08
31	0xba3740a5	-0.0006990529
32	0x3a0aa05e	0.0005288179
33	0x3cb9101a	0.022590686
34	0x3a20bdd0	0.00061318
35	0x39fd1dcd	0.00048278124
36	0xb99ad9e1	-0.000295355
37	0x3caf6249	0.02140917
38	0x3d5c4b08	0.053782493
39	0xb9b38812	-0.0003424292
40	0xbc889a52	-0.016675148
41	0xb9f83b9d	-0.0004734666
42	0xba09008e	-0.0005226218
43	0x39f566de	0.00046806684
44	0x3c3b82fa	0.011444801
45	0x36cf28d1	6.1738324e-06
46	0x39b646e1	0.00034766554
47	0x3c443c61	0.011977286
48	0xba317939	-0.0006770078
49	0xb9acae38	-0.000329362
50	0xb9b0da2d	-0.0003373189
51	0xbd70a9dd	-0.058755744
52	0xb9b87c60	-0.0003518788
53	0x3a0b44bd	0.0005312672
54	0x3a25dc40	0.00063270703
55	0x3923aa26	0.00015608277
56	0xb770c67a	-1.4351326e-05
57	0xbd8d0793	-0.0688621
58	0x32f5b2ea	2.8603115e-08
59	0xb797b4eb	-1.808485e-05
60	0xbdc3a163	-0.095522664
61	0xb9e84c81	-0.00044307488
62	0xb9ceaf78	-0.00039422116
63	0x3cf18ce9	0.029486137

batch_normalization_7/FusedBatchNorm_mul_0_param f4 [64]
0	0xba0ae750	-0.00052987505
1	0xbbb24633	-0.0054404973
2	0x40267ebe	2.6014857
3	0x3b678708	0.0035328288
4	0x3b8cfa06	0.004302266
5	0xba44404b	-0.0007486387
6	0x39bc1eb1	0.0003588102
7	0x3ba8ebb0	0.0051550493
8	0x3bc93163	0.0061399206
9	0x40304b7a	2.7546067
10	0xb8b27b82	-8.5107065e-05
11	0x400ec944	2.2310343
12	0xbb8fd3c8	-0.00438926
13	0x3986ec79	0.00025734658
14	0x40041007	2.0634782
15	0x3fdbcc6d	1.7171761
16	0xba3cf2cb	-0.000720781
17	0x3fe6f6a7	1.8044022
18	0x402886f8	2.6332378
19	0x401fe642	2.4984288
20	0xb90af1db	-0.00013250804
21	0x3b68d2da	0.0035526068
22	0xbb182e42	-0.0023220931
23	0x3ffda7be	1.9816816
24	0x40697262	3.6476064
25	0x39a1762b	0.00030796355
26	0x3b511e3c	0.003190889
27	0xbbb43b14	-0.0055002067
28	0xba056b72	-0.0005089558
29	0xb9891a2f	-0.00026150185
30	0xb800f8e7	-3.0749386e-05
31	0x39d7fcf1	0.00041196452
32	0xba1a9982	-0.0005897508
33	0x404101eb	3.015742
34	0x3b09396d	0.002093877
35	0xbb16d07b	-0.0023012448
36	0x3b94bc57	0.0045390534
37	0x40050660	2.078514
38	0x3fdf43bf	1.744255
39	0xbb8e20b8	-0.0043373965
40	0x4010e231	2.2638056
41	0x3b339d96	0.002740716
42	0x3b6b6908	0.0035920758
43	0x3b20cf2e	0.0024537551
44	0x40312f33	2.7685058
45	0xb992ed32	-0.00028024014
46	0x3b8e97c4	0.004351588
47	0x40394ee7	2.8954408
48	0xb9a95e37	-0.00032304387
49	0x3ba33705	0.004980924
50	0xb9916b23	-0.00027736378
51	0x40060df5	2.0946019
52	0x3b81df11	0.003963359
53	0x3a59a133	0.00083019136
54	0xbb2af87a	-0.0026088045
55	0x3b38094a	0.0028081709
56	0x3a1c41b5	0.0005960719
57	0x40677d46	3.617021
58	0x34a0d4b3	2.9957081e-07
59	0x3b908e89	0.0044115228
60	0x3fab9b71	1.3406812
61	0x3b570b1a	0.0032813014
62	0x39379959	0.00017509366
63	0x401bf706	2.436952

batch_normalization_8/FusedBatchNorm_add_param f4 [128]
0	0xba5ee293	-0.000850239
1	0xbab76f75	-0.0013995009
2	0x3b18a982	0.0023294394
3	0x3a43dc01	0.0007471443
4	0xba5306e7	-0.000805004
5	0xbd26eabd	-0.040751208
6	0x3a2bc1c0	0.00065520033
7	0x3a44bc33	0.00075048505
8	0x3bd0ab66	0.0063680885
9	0x3a4230c0	0.0007407777
10	0xbc761ae5	-0.015021061
11	0x3a42c742	0.00074302044
12	0xbb754558	-0.0037425365
13	0x3b8f1928	0.0043670125
14	0xba4c9ba9	-0.00078051776
15	0x3a289c08	0.0006431942
16	0x3a4f22c6	0.0007901605
17	0x3a5fff2b	0.0008544798
18	0x3a4678fb	0.0007571128
19	0xba4f49d8	-0.0007907427
20	0xbc0682c1	-0.008209885
21	0xbcf648ae	-0.030063953
22	0x3a45bf0b	0.0007543421
23	0x3b2ae7d3	0.002607812
24	0xbda287bf	-0.07936048
25	0xba595248	-0.0008290154
26	0x3b101d6a	0.0021990188
27	0xbcffa380	-0.031205893
28	0x3a609f16	0.00085686275
29	0xbb46ad8e	-0.003031585
30	0xba93ccfb	-0.0011276299
31	0xba43bba6	-0.00074666215
32	0xba5b0572	-0.00083549984
33	0xbb84a6e5	-0.0040482157
34	0xbcfb79cf	-0.030697731
35	0xbb8f52e0	-0.004373893
36	0xbbe3d0d4	-0.0069523845
37	0xba447443	-0.0007494131
38	0xbdbaf220	-0.09128213
39	0x3a56e78a	0.0008197954
40	0xbc91be45	-0.017790923
41	0x3a54906a	0.00081086776
42	0x3b4feb2a	0.0031725862
43	0xbcd637f2	-0.026149724
44	0xba52643b	-0.00080258
45	0x3a431244	0.00074413815
46	0x3a56cce9	0.0008193986
47	0xbba5e0a1	-0.0050621782
48	0x3af25df8	0.001849114
49	0x3b5679b1	0.0032726342
50	0x3a48bb17	0.0007657273
51	0xba4769fd	-0.0007607041
52	0xba4d4d10	-0.00078316126
53	0xba3f25c9	-0.0007291702
54	0xba4b4046	-0.0007753413
55	0xbbabe475	-0.00524574
56	0xbb559435	-0.003258956
57	0x3b96017d	0.004577814
58	0x3b8840de	0.0041581234
59	0x3a5861cf	0.0008254321
60	0xba40b75d	-0.0007351542
61	0x3b7a37ac	0.0038180156
62	0xbb9b7c9e	-0.00474508
63	0xba456521	-0.0007530023
64	0xbb44f2bd	-0.003005191
65	0x3a65a0fa	0.0008759644
66	0xbb4c7dd4	-0.003120293
67	0x3af14c82	0.0018409642
68	0x3baeda9d	0.0053361193
69	0xbc09a48b	-0.0084010465
70	0xba51cbc1	-0.0008003079
71	0xba42eb77	-0.00074355997
72	0xbd00258b	-0.031285804
73	0xbc5ada92	-0.013357775
74	0x3b281d3b	0.0025652188
75	0xbaa9fc69	-0.0012968901
76	0x3a53d210	0.0008080313
77	0xb8eb8ebc	-0.000112322596
78	0xbb44a403	-0.0030004985
79	0xbbbf86ac	-0.0058449116
80	0x3a26c865	0.00063622586
81	0x3a53315c	0.00080563664
82	0x3a416ed5	0.0007378881
83	0xbb95aa1d	-0.004567398
84	0xbca40b7c	-0.020025007
85	0x3a525859	0.0008024029
86	0xbcc5d28e	-0.024148252
87	0x3a4474f3	0.00074942334
88	0xba53b9ce	-0.0008076698
89	0x3a50cfeb	0.00079655525
90	0xbb716644	-0.0036834637
91	0xba482d28	-0.00076361233
92	0x3a5ac4f1	0.00083453866
93	0x3b531c55	0.0032212932
94	0x3ba884b7	0.005142774
95	0x3a58603a	0.0008254085
96	0x3b79675f	0.0038055999
97	0x3b37f7f8	0.0028071385
98	0xbb67d310	-0.0035373606
99	0x3b16a85c	0.0022988534
100	0x3b8b459c	0.0042502414
101	0xba467899	-0.0007571071
102	0xbc82aba7	-0.01595099
103	0xbd17ffc6	-0.03710916
104	0xba4db990	-0.00078477804
105	0xba747084	-0.00093246275
106	0xbcb9c880	-0.022678614
107	0xbb8ff5de	-0.0043933233
108	0x3a5f48e8	0.0008517639
109	0x3a52976d	0.00080334285
110	0xba4dd900	-0.0007852465
111	0xba2f5f56	-0.00066899264
112	0xba423918	-0.00074090203
113	0x3a5a00d0	0.0008316161
114	0xbbca80e4	-0.0061799157
115	0xbbe67928	-0.007033486
116	0xb72e7849	-1.0399214e-05
117	0xbc336c59	-0.010951125
118	0x3a51970c	0.0007995225
119	0xba890e88	-0.0010456601
120	0xba5e58ef	-0.000848188
121	0xbb322309	-0.0027181527
122	0x3bc91568	0.006136585
123	0xbbd33597	-0.0064455974
124	0xbb75cc70	-0.0037505887
125	0xba3b5027	-0.00071454275
126	0x3a4fcc82	0.00079268974
127	0xba59bb65	-0.0008305817

batch_normalization_8/FusedBatchNorm_mul_0_param f4 [128]
0	0xbac67879	-0.0015142105
1	0x3b42b381	0.0029709043
2	0x32d3a9f3	2.4640917e-08
3	0x375f9533	1.3326574e-05
4	0xb64e8478	-3.07735e-06
5	0x40410f28	3.01655
6	0x4045b2d3	3.0890396
7	0x39d61b57	0.0004083763
8	0xb9aae9b8	-0.0003259906
9	0x401fc2c2	2.496262
10	0x404223e2	3.03344
11	0xb6a73329	-4.9829437e-06
12	0x38c971f0	9.6056494e-05
13	0x386e9531	5.6882567e-05
14	0x3b47aecc	0.0030469177
15	0x3815ead4	3.574307e-05
16	0xbb363a36	-0.0027805693
17	0xb6d1c264	-6.2513154e-06
18	0x367e2d4f	3.7875323e-06
19	0x3802af13	3.1157466e-05
20	0x405a0a23	3.4068687
21	0x40275942	2.6148229
22	0xb2153761	-8.685533e-09
23	0x38d97dad	0.00010370775
24	0x3fde719f	1.7378424
25	0x382e3547	4.153445e-05
26	0xb9b1871b	-0.00033860732
27	0x400b12ff	2.1730344
28	0x3aaae434	0.001303798
29	0x3aa5fac9	0.0012663241
30	0xb9ac1a7f	-0.00032826138
31	0xb8925413	-6.9774826e-05
32	0x3c0889be	0.008333622
33	0x395c4b32	0.00021008847
34	0x4034ba6e	2.8238788
35	0xbe8dc70c	-0.27690923
36	0x40687026	3.631845
37	0xb683e9e3	-3.9313322e-06
38	0x4011684c	2.2719908
39	0xbc105026	-0.008808171
40	0x4054dcb9	3.3259718
41	0xbbd81827	-0.006594676
42	0x37f7b661	2.9529621e-05
43	0x402a1f87	2.6581743
44	0x35923551	1.0893365e-06
45	0xba3470ab	-0.0006883244
46	0xb8273632	-3.9866376e-05
47	0x385e8b51	5.3058673e-05
48	0x3a00d8b2	0.00049151026
49	0xbab013e1	-0.0013433659
50	0x331dd4d2	3.674797e-08
51	0x331ba69d	3.6240284e-08
52	0x2f64ff27	2.0827128e-10
53	0xb3f61a05	-1.14600006e-07
54	0xb4da1121	-4.0618127e-07
55	0x3391a72a	6.7824956e-08
56	0x3ad94581	0.00165765
57	0xb888a648	-6.515958e-05
58	0xba95a37a	-0.0011416518
59	0x3601a8d5	1.932077e-06
60	0x360443ba	1.9708955e-06
61	0xb9a2b355	-0.0003103266
62	0x38962c82	7.1608476e-05
63	0xba95ebc8	-0.0011438066
64	0x3aea89c9	0.0017893846
65	0xbc832944	-0.016010888
66	0xb6100061	-2.1457893e-06
67	0x32171c11	8.795738e-09
68	0xb92d6ac0	-0.00016538333
69	0x402ccedd	2.700126
70	0xba4de32d	-0.0007853981
71	0x394f3b5f	0.00019763176
72	0x40241fcf	2.5644414
73	0x40249883	2.5718086
74	0x3989362d	0.0002617104
75	0xb40d9f63	-1.3189633e-07
76	0x3ab57f3a	0.001384712
77	0x3122cc5a	2.3690263e-09
78	0x3988f80b	0.00026124748
79	0x4038b9f9	2.8863509
80	0x398dc021	0.00027036763
81	0xbc84a432	-0.016191576
82	0x37ed6c11	2.8302924e-05
83	0x396a08dc	0.0002231928
84	0x403e714a	2.9756646
85	0xb7096fa2	-8.191828e-06
86	0x4041d7c9	3.0287955
87	0xb68e4176	-4.2395504e-06
88	0x3898affc	7.2807044e-05
89	0xbb39e608	-0.002836587
90	0x3819ef91	3.6701156e-05
91	0xb7aa814f	-2.0325793e-05
92	0x3724dd67	9.826711e-06
93	0x3b9543a4	0.0045551825
94	0xbb62b263	-0.003459119
95	0xb731912e	-1.0583824e-05
96	0x3971d950	0.00023064506
97	0xb72120b9	-9.603967e-06
98	0x3a8e62b3	0.0010863155
99	0xb7944d94	-1.76791e-05
100	0x2e0ad6c1	3.1568307e-11
101	0xba2c79dc	-0.0006579438
102	0x4051c3e7	3.277582
103	0x40404949	3.004473
104	0x3516254b	5.5933623e-07
105	0xb4886a67	-2.5409392e-07
106	0x402fb882	2.7456365
107	0x3b89c439	0.0042042998
108	0x35ae0871	1.2966467e-06
109	0x3881c584	6.1879895e-05
110	0xb8a9b870	-8.092902e-05
111	0x38b95acb	8.838399e-05
112	0xb981d5ca	-0.00024764083
113	0xb518e070	-5.695101e-07
114	0x402d625f	2.709129
115	0x405c7e82	3.4452214
116	0xb79d82db	-1.8776793e-05
117	0x402f6257	2.7403772
118	0x34c74b10	3.7121254e-07
119	0xb706dd29	-8.038515e-06
120	0x37a9c1db	2.0236641e-05
121	0x395d3d95	0.00021099143
122	0x403339d5	2.8004048
123	0x40567ebc	3.3514853
124	0x401f9aab	2.4938152
125	0x3ab89acf	0.0014084222
126	0x34aa5238	3.172479e-07
127	0xb9934c40	-0.00028094836

batch_normalization_9/FusedBatchNorm_add_param f4 [16]
0	0xbca11e3a	-0.019667733
1	0xbcbf36d6	-0.023341578
2	0xbc594b6e	-0.013262613
3	0xbcd39a7c	-0.0258305
4	0xbc8c11f8	-0.017098412
5	0xbd17a540	-0.03702283
6	0xbca4db22	-0.020124022
7	0x3b7edee0	0.0038890168
8	0xbd1fa6d8	-0.038977474
9	0x3b12c140	0.0022393018
10	0xbd1d295f	-0.038369533
11	0xbcdd54fc	-0.027018063
12	0xbc8c8f89	-0.017158287
13	0xbc8a0c8b	-0.016851684
14	0xbd40ae95	-0.047041494
15	0xbcf4fcaa	-0.029905636

batch_normalization_9/FusedBatchNorm_mul_0_param f4 [16]
0	0x40987092	4.7637415
1	0x408d6e00	4.4196777
2	0x402e85f0	2.726925
3	0x40d63ac4	6.6946735
4	0x40acc91f	5.399551
5	0x4053be33	3.3084838
6	0x408273ca	4.0766344
7	0x40547dbb	3.320174
8	0x40923f82	4.5702524
9	0x3fe0d741	1.756569
10	0x408dde87	4.433414
11	0x4087681b	4.231458
12	0x4080b1bf	4.0216975
13	0x40acf18d	5.404486
14	0x40b83cf7	5.757442
15	0x40fc18d0	7.878029

conv2d/Conv2D_bias f4 [8]
0	0x00000000	0.0
1	0x00000000	0.0
2	0x00000000	0.0
3	0x00000000	0.0
4	0x00000000	0.0
5	0x00000000	0.0
6	0x00000000	0.0
7	0x00000000	0.0

conv2d/kernel f4 [8, 3, 3, 3]
0	0x3bfd510a	0.007730608
1	0x3a64fbbe	0.0008735022
2	0x3c884796	0.016635697
3	0x3c08d89a	0.008352423
4	0x3b2a9dad	0.0026033923
5	0x3c920721	0.017825665
6	0x3c393b30	0.011305615
7	0x3ba9faea	0.005187382
8	0x3ca05100	0.019569874
9	0x3b9dada8	0.004811961
10	0xba66a338	-0.0008798125
11	0x3c5a30ee	0.01331733
12	0x3be65140	0.0070287287
13	0x3a935cb6	0.001124284
14	0x3c64c63f	0.013963281
15	0x3c266830	0.010156676
16	0x3b744102	0.0037270193
17	0x3c838b33	0.016057586
18	0x3aa423fc	0.0012522931
19	0xbad06ee1	-0.0015902185
20	0x3c2cecf4	0.010554541
21	0x3b677527	0.003531763
22	0xbac1be82	-0.0014781507
23	0x3c26815a	0.010162676
24	0x3b1448a1	0.0022626298
25	0xb9b45f67	-0.00034403356
26	0x3c3a9717	0.011388562
27	0xbded5269	-0.11587984
28	0xbd4d67ee	-0.050147943
29	0x3e197886	0.14987382
30	0x3dd7a48c	0.10529432
31	0x3e5842b6	0.21119198
32	0x3e39cd0e	0.18144628
33	0xbd406c39	-0.04697821
34	0x3cb90354	0.022584595
35	0x3d0e9f01	0.034819607
36	0x3e072986	0.13199434
37	0x3dd4fc4e	0.10399686
38	0x3e4278b1	0.18991353
39	0x3e131a71	0.14365555
40	0x3cde3e4e	0.027129319
41	0xbdfeeeee	-0.12447916
42	0x3e018168	0.12647021
43	0x3d9e6742	0.077345386
44	0xbe0f4792	-0.13992146
45	0xbd1e888b	-0.038704436
46	0xbe04ce3a	-0.12969294
47	0x3cd07e2b	0.025450787
48	0xbd97d3f5	-0.074134745
49	0xbe21fe58	-0.1581968
50	0xbe46d89b	-0.19418566
51	0xbe75306f	-0.23944257
52	0xbdebfbd4	-0.11522642
53	0xbdebfef2	-0.11523236
54	0xbcfc999b	-0.030834964
55	0xbd1903e8	-0.03735724
56	0x3d4cbf33	0.04998703
57	0xbd1efe67	-0.038816836
58	0xbe1f825f	-0.15577076
59	0xbe17949e	-0.14802787
60	0x3dd7628a	0.10516842
61	0x3e3ae3a2	0.18250898
62	0x3c9838fb	0.018581858
63	0xbcb93213	-0.022606885
64	0xbdb76325	-0.08954457
65	0x3ccd15d1	0.025034817
66	0xbda6942c	-0.0813373
67	0xbdef7691	-0.116925366
68	0xbd69c42a	-0.057071842
69	0x3cf4d0f9	0.029884802
70	0x3df51264	0.11966398
71	0x3c7f3edb	0.015578951
72	0xbdd02a88	-0.10164362
73	0xbd3618c6	-0.04445722
74	0xbe141490	-0.14460969
75	0x3d632618	0.05545625
76	0x3d634e97	0.05549487
77	0x3df0c66a	0.117565945
78	0x3db865bf	0.090037815
79	0x3d8150a3	0.06314208
80	0x3e150057	0.14550911
81	0x3d341622	0.04396642
82	0xbcc01094	-0.023445405
83	0xbc80e639	-0.015734779
84	0x3b7b58c2	0.0038352464
85	0xbccb13c2	-0.024789695
86	0xbca05c50	-0.019575268
87	0x3d94df76	0.07269184
88	0xba3e9596	-0.0007270215
89	0xbcbfc567	-0.023409558
90	0xbd3f248b	-0.04666571
91	0xbc69d759	-0.014272534
92	0xbbb613f9	-0.00555658
93	0x3d3dce16	0.046339117
94	0x3c08a7b7	0.008340768
95	0xbc6c7163	-0.01443133
96	0x3d6023da	0.05472169
97	0xbd82fbe8	-0.063957036
98	0xbbabc674	-0.0052421633
99	0xbd850bd9	-0.064964004
100	0x3cb2dbac	0.021833263
101	0xbcda6ce3	-0.02666325
102	0x3c2fc196	0.010727307
103	0xbd83917c	-0.06424233
104	0xbce20e53	-0.027594721
105	0xbab82b34	-0.0014050961
106	0xbd8c07be	-0.06837414
107	0xbc84d168	-0.016213134
108	0xbc61a3f2	-0.013771998
109	0xbc8aebc4	-0.016958125
110	0xbd760248	-0.06006077
111	0x3c801b52	0.015638027
112	0xbc72e65f	-0.014825433
113	0xbd2639b0	-0.04058236
114	0x3caec310	0.021333247
115	0xbb2b51ee	-0.0026141363
116	0xbbd6198e	-0.006533808
117	0x3c1b3bda	0.009474719
118	0x3a8a14c4	0.0010534753
119	0x3cea7eaa	0.028624851
120	0x3ced8687	0.028994812
121	0xbaf025a6	-0.0018321767
122	0x3b054bc2	0.0020339345
123	0x3d068a4a	0.032846726
124	0x3c0a7500	0.008450747
125	0x3bfe396d	0.0077583105
126	0x3b94be95	0.0045393207
127	0x3acc86ca	0.0015604135
128	0xbb3b7882	-0.0028605764
129	0x3d21e37c	0.039523587
130	0x3c8c5c9f	0.017134009
131	0x3ca6c801	0.020359041
132	0x3d5f7268	0.054552466
133	0x3ca313e6	0.01990695
134	0x3cc4ca54	0.024022259
135	0x3cc9e41e	0.024644908
136	0x3d684ceb	0.05671398
137	0x3db3b755	0.08775202
138	0xbca28e88	-0.019843355
139	0x3d3c65b1	0.045995418
140	0x3d909d4c	0.07061252
141	0xbc51f935	-0.012815763
142	0x3d7c9e95	0.061674673
143	0x3d928f23	0.071562074
144	0xbd988489	-0.07447154
145	0x3c8e0e10	0.01734069
146	0x3d021fcf	0.031768616
147	0xbd26d146	-0.040726922
148	0x3ccf3e70	0.025298327
149	0x3d35f60a	0.044424094
150	0xbdc81e7c	-0.097714394
151	0xbd1a56c2	-0.037680395
152	0xbcb3f12d	-0.021965588
153	0x3b8ac86a	0.004235317
154	0x3cedb2d7	0.029015942
155	0xbb7c0317	-0.003845399
156	0xbda67c18	-0.08129138
157	0xbbc259a4	-0.005931096
158	0x3c654246	0.013992852
159	0xbd8816b6	-0.06644957
160	0x3c6c223d	0.01441246
161	0x3b8c9f76	0.00429147
162	0x3d097239	0.033556197
163	0xbdaf8101	-0.085695274
164	0xbd5b4329	-0.053530846
165	0x3d3acbe7	0.045604613
166	0xbcfeee2d	-0.03111943
167	0x3d94be7b	0.07262894
168	0x3d4f927c	0.050676808
169	0xbd7726a4	-0.060339585
170	0xbd0f2e18	-0.034956068
171	0xbc035322	-0.008015426
172	0xbd9506e2	-0.072767034
173	0xbca21963	-0.019787496
174	0xbc4df0df	-0.012569635
175	0xbcd9e072	-0.026596282
176	0x3dae91f8	0.08523935
177	0x3d55b55c	0.05217491
178	0xbcaf2c3a	-0.021383394
179	0xba4299ba	-0.000742342
180	0xbd27b143	-0.040940534
181	0xbd195d71	-0.03744263
182	0x3d6a05d8	0.05713448
183	0xbb351545	-0.0027631086
184	0x3a639327	0.000868129
185	0x3ddb9ce4	0.10723284
186	0x3c8ff727	0.017573906
187	0xbc06481b	-0.008195902
188	0x3d568277	0.052370515
189	0xbdc781eb	-0.09741577
190	0xbe3806b7	-0.17971312
191	0x3da2201d	0.07916281
192	0xbe55cad3	-0.20878153
193	0x3d8c18c6	0.06840663
194	0x3c502fb8	0.01270669
195	0xbe142d80	-0.14470482
196	0xbe2f9467	-0.17146455
197	0xbe4e46e7	-0.20144235
198	0x3c8b628d	0.017014766
199	0xbd1b9866	-0.037987135
200	0xbe0680a7	-0.13135014
201	0xbd6879e1	-0.056756858
202	0x3e35e1fb	0.17761986
203	0xbce6ac84	-0.028158434
204	0x3e1911d2	0.14948204
205	0x3ddd54ea	0.10807212
206	0x3da3eddd	0.08004353
207	0x3e0db494	0.13838416
208	0xbdf5fdfa	-0.12011333
209	0x3cc40ecc	0.023932837
210	0xbd8fbdba	-0.07018609
211	0x3c1bda9e	0.009512572
212	0x3e4f0378	0.20216167
213	0x3e665f3b	0.22497265
214	0x3e499a3d	0.19687743
215	0xbd2fae4b	-0.042890828

conv2d_1/Conv2D_bias f4 [32]
0	0x00000000	0.0
1	0x00000000	0.0
2	0x00000000	0.0
3	0x00000000	0.0
4	0x00000000	0.0
5	0x00000000	0.0
6	0x00000000	0.0
7	0x00000000	0.0
8	0x00000000	0.0
9	0x00000000	0.0
10	0x00000000	0.0
11	0x00000000	0.0
12	0x00000000	0.0
13	0x00000000	0.0
14	0x00000000	0.0
15	0x00000000	0.0
16	0x00000000	0.0
17	0x00000000	0.0
18	0x00000000	0.0
19	0x00000000	0.0
20	0x00000000	0.0
21	0x00000000	0.0
22	0x00000000	0.0
23	0x00000000	0.0
24	0x00000000	0.0
25	0x00000000	0.0
26	0x00000000	0.0
27	0x00000000	0.0
28	0x00000000	0.0
29	0x00000000	0.0
30	0x00000000	0.0
31	0x00000000	0.0

conv2d_1/kernel f4 [32, 3, 3, 8]
0	0x27211dc3	2.2359372e-15
1	0xa7bfb430	-5.320851e-15
2	0xa80393af	-7.303985e-15
3	0xa7f09b41	-6.678171e-15
4	0xa74be442	-2.8295648e-15
5	0xa791658c	-4.035568e-15
6	0xa8157e65	-8.298569e-15
7	0xa8031cc9	-7.278203e-15
8	0x272965ad	2.350858e-15
9	0xa7ae9e58	-4.846638e-15
10	0xa7c3a692	-5.430397e-15
11	0xa7faf704	-6.9656754e-15
12	0xa73e41c9	-2.640346e-15
13	0xa79fb53a	-4.432785e-15
14	0xa81d0b98	-8.717765e-15
15	0xa7d02b25	-5.7778375e-15
16	0x27216d47	2.2402478e-15
17	0xa78e548a	-3.9504575e-15
18	0xa79b30b2	-4.3073938e-15
19	0xa801cc8d	-7.205293e-15
20	0xa73ccc70	-2.6201067e-15
21	0xa7bd532a	-5.2548205e-15
22	0xa81b9899	-8.637318e-15
23	0xa7ba5df7	-5.1727248e-15
24	0x270cbcb4	1.95312e-15
25	0xa75f8ac8	-3.10227e-15
26	0xa7baa6b8	-5.1806127e-15
27	0xa7e95334	-6.47607e-15
28	0xa76defe2	-3.3020398e-15
29	0xa783a672	-3.6540264e-15
30	0xa80f0988	-7.940161e-15
31	0xa7e5a2f8	-6.373696e-15
32	0x2727299a	2.3198458e-15
33	0xa70ad5de	-1.9267285e-15
34	0xa7804f83	-3.5613344e-15
35	0xa7ff32f1	-7.083195e-15
36	0xa7628186	-3.1434015e-15
37	0xa794c4a2	-4.129144e-15
38	0xa815a7b5	-8.307527e-15
39	0xa7c0aa72	-5.3475502e-15
40	0x2710e2fd	2.0107065e-15
41	0xa681e4b8	-9.013167e-16
42	0xa72b14ea	-2.3742355e-15
43	0xa80a868e	-7.689716e-15
44	0xa734a00c	-2.506678e-15
45	0xa7a9443b	-4.69809e-15
46	0xa8135d37	-8.180352e-15
47	0xa7a93a99	-4.6970454e-15
48	0x26ea7b61	1.6270454e-15
49	0xa7076279	-1.8788396e-15
50	0xa7755863	-3.4048495e-15
51	0xa7f4ea12	-6.7977384e-15
52	0xa77f2277	-3.5407042e-15
53	0xa79c0506	-4.3304144e-15
54	0xa8084944	-7.5654035e-15
55	0xa7e2a56d	-6.2906956e-15
56	0x26fce9ea	1.7549415e-15
57	0xa696bbcc	-1.0459243e-15
58	0xa716fbe0	-2.0953223e-15
59	0xa801b8d0	-7.201013e-15
60	0xa7755ab2	-3.4049746e-15
61	0xa79fd2e2	-4.4360005e-15
62	0xa80d2735	-7.835574e-15
63	0xa7c71cfb	-5.5265016e-15
64	0x270e3abe	1.9738303e-15
65	0x24f3a7a0	1.0566842e-16
66	0xa6adfc2b	-1.2072637e-15
67	0xa80f6688	-7.9603275e-15
68	0xa73bf27e	-2.6082918e-15
69	0xa79690eb	-4.1790484e-15
70	0xa80bca28	-7.759886e-15
71	0xa7b117b0	-4.915305e-15
72	0xbabc81fe	-0.0014382002
73	0x3cd27203	0.02568913
74	0xbc0c80ae	-0.0085756015
75	0x3a08ebb4	0.0005223111
76	0xbada0fc4	-0.0016636779
77	0x3c78929f	0.015171676
78	0xbcd57a9e	-0.026059445
79	0x3c4ad5d4	0.012380082
80	0xbaae62ed	-0.0013304629
81	0x3d11ed95	0.035626967
82	0xbc3516f4	-0.011052836
83	0xbb83fb0f	-0.0040277313
84	0xbb4d9dc2	-0.0031374549
85	0x3c908f3e	0.017646428
86	0xbcb6c812	-0.022312198
87	0x3c19e9de	0.009394137
88	0xbad93813	-0.0016572498
89	0x3d0ca98d	0.034341384
90	0xbb8bbb7b	-0.004264293
91	0xbc0d4eb6	-0.008624723
92	0xbb8c6a5f	-0.0042851414
93	0x3c9ec2c4	0.01937998
94	0xbc942f81	-0.018089058
95	0x3c7134ae	0.0147220325
96	0xbabdd41b	-0.0014482768
97	0xbc19272c	-0.009347718
98	0xbc367657	-0.011136613
99	0x3b9ae867	0.0047274115
100	0xbb8a07fb	-0.004212377
101	0x3c00ecb7	0.007868937
102	0xbc987a0a	-0.01861288
103	0x3cf58bb2	0.029973838
104	0xbab00441	-0.0013429002
105	0xbba977da	-0.005171758
106	0xbc2c3c78	-0.010512464
107	0xbbac8805	-0.005265238
108	0xbb78ba96	-0.003795301
109	0x3c288c26	0.01028732
110	0xbc7e951b	-0.015538479
111	0x3cd4d90b	0.0259824
112	0xbaae147b	-0.001328125
113	0xbc7537ce	-0.014966918
114	0x3ae29462	0.0017286653
115	0xbbda9482	-0.0066705355
116	0xbbad85ad	-0.0052954764
117	0x3c002dca	0.007823417
118	0xbc3f6c22	-0.011683496
119	0x3d094559	0.0335134
120	0xbaaef913	-0.0013349376
121	0xbd2df9c3	-0.04247452
122	0xbc8d84f5	-0.017275313
123	0x3bbcf9ac	0.005767068
124	0xbc030eb7	-0.007999114
125	0xbbb025cc	-0.0053755995
126	0xbc51c27b	-0.012802715
127	0x3c2ba8b0	0.01047723
128	0xba9fe037	-0.0012197559
129	0xbd1f93c1	-0.03895927
130	0xbc455759	-0.012044751
131	0xbb29a3ad	-0.0025884912
132	0xbbdc4751	-0.0067223688
133	0xbbb7af2d	-0.0056055994
134	0xbc19b271	-0.009380923
135	0x3c631ae0	0.013861388
136	0xba88ddd1	-0.0010442083
137	0xbd41778f	-0.04723316
138	0xba2d13b6	-0.00066023634
139	0xbc1e88f8	-0.009676211
140	0xbbc3d61f	-0.005976453
141	0xbc0579d5	-0.008146723
142	0xbb9aa10b	-0.004718905
143	0x3ce9edce	0.028555777
144	0xbc06d49b	-0.0082294
145	0x3b24305f	0.0025053245
146	0x3c68791a	0.014189029
147	0xbad9b802	-0.0016610625
148	0xbbe65f56	-0.007030408
149	0x3a700eb9	0.0009157467
150	0x3b0224db	0.0019858393
151	0x3ca7ae05	0.020468721
152	0xbc071742	-0.008245291
153	0x3c00890d	0.007845175
154	0x3c5cbdbd	0.0134729715
155	0xbb396c1a	-0.0028293193
156	0xbbc3696f	-0.0059634964
157	0x3bad60b3	0.0052910685
158	0x3a0db6be	0.0005405954
159	0x3c9a80bd	0.018860215
160	0xbc14c541	-0.009080232
161	0x3c2e817c	0.010650989
162	0x3c9a99e5	0.01887221
163	0xbba531d8	-0.005041342
164	0xbbd1524e	-0.0063879853
165	0x3c00e9d8	0.007868253
166	0xb94ae34a	-0.00019348893
167	0x3c8a11b1	0.016854139
168	0xbbf9e0a3	-0.0076256557
169	0x3c79e7ce	0.01525302
170	0x3c238854	0.009981234
171	0x3b0795fa	0.0020688758
172	0xbc2f60f7	-0.010704271
173	0x3b852837	0.004063632
174	0x3a8e7770	0.0010869335
175	0x3a81ea0c	0.000991167
176	0xbc01bbc4	-0.007918302
177	0x3bf8247d	0.007572709
178	0x3c129c76	0.008948436
179	0xb9b38862	-0.00034243154
180	0xbc1cdcf4	-0.009574164
181	0x3c04f7d1	0.008115725
182	0xba8b97c5	-0.0010650089
183	0xbaa0c0ea	-0.0012264524
184	0xbc10be8d	-0.008834493
185	0xbb291553	-0.0025800064
186	0x3c951789	0.018199699
187	0xbb6cd439	-0.0036137237
188	0xbc2caae5	-0.010538791
189	0x3c1c3276	0.009533515
190	0xbae0d2aa	-0.0017152627
191	0xbaba2db5	-0.0014204296
192	0xbbf113d3	-0.0073570996
193	0x3c226f03	0.009914163
194	0x3c142bf5	0.009043683
195	0x3bc639b1	0.006049358
196	0xbc3bffa7	-0.0114745265
197	0x3bda4577	0.006661113
198	0x39ececa3	0.00045189736
199	0xbc12bac9	-0.008955666
200	0xbbfc6ff0	-0.0077037737
201	0xbc07a5a8	-0.008279242
202	0x3c1d286e	0.009592159
203	0x3af7ce4a	0.0018906083
204	0xbc2d9d11	-0.01059653
205	0x3c21c434	0.009873439
206	0xbae297d9	-0.0017287686
207	0xbc1769ea	-0.0092415605
208	0xbc0f70b9	-0.0087549025
209	0xbc997d06	-0.018736374
210	0x3cb30ad0	0.021855742
211	0xbb269500	-0.00254184
212	0xbc357f40	-0.011077702
213	0x3c3af8d1	0.0114118615
214	0xbb126179	-0.002233593
215	0xbbe76d49	-0.0070625884
216	0xbc02745d	-0.0079623135
217	0xbbb01b1f	-0.005374327
218	0x3c8288a2	0.015934292
219	0x3aa0c9d6	0.0012267183
220	0xbc441ced	-0.011969787
221	0xbbad28c1	-0.0052843993
222	0x3bd8d3b6	0.006617035
223	0xbd5c0dac	-0.053723976
224	0xbb7b5a5c	-0.003835342
225	0xbc6577bb	-0.014005597
226	0xbadc6a76	-0.0016816396
227	0xbc1d32cb	-0.0095946295
228	0xb9f89a7b	-0.00047417343
229	0x3b818f5d	0.003953858
230	0x3c58c475	0.013230433
231	0xbd7b50d5	-0.061356384
232	0xbaa137ab	-0.0012299916
233	0xbc559af7	-0.013037435
234	0xbc2ead69	-0.010661461
235	0x3c83b362	0.016076747
236	0x3b21f803	0.0024714477
237	0x3b3402b6	0.0027467436
238	0x3c8c9cbe	0.017164584
239	0xbd765607	-0.060140636
240	0xbc309b80	-0.010779262
241	0xbc6a6a85	-0.014307623
242	0x3ca6f8ea	0.020382363
243	0xbaaba6fb	-0.0013096029
244	0xbc9ad0ef	-0.018898455
245	0xbc51049a	-0.012757445
246	0x3b9b7d4a	0.00474516
247	0xbd2f0609	-0.042730365
248	0xbbe11033	-0.006868386
249	0xbc0b4aa9	-0.008501687
250	0x3c45e6f3	0.012078988
251	0xbc2a88b8	-0.010408573
252	0xbc091536	-0.0083668735
253	0xbbbf7fea	-0.005844106
254	0x3c47e661	0.012200923
255	0xbd61040c	-0.0549355
